data.pth (torch, 7530 bytes, 6 tensors)

l1.weight f4 [8, 96]
0	0x3dc64cd0	0.096826196
1	0xbe278c6e	-0.16362163
2	0xbd488513	-0.048955034
3	0xbd81239a	-0.063056186
4	0xbdd72f77	-0.105071
5	0xbd898b5d	-0.067160346
6	0x3eb40259	0.3515804
7	0xbdaa9d60	-0.08330798
8	0x3dfc19be	0.123095974
9	0x3ed012c8	0.4063933
10	0xbd8196b6	-0.06327574
11	0xbd05ae8d	-0.032637168
12	0xbefbde2e	-0.49192947
13	0xbda07870	-0.07835472
14	0xbe95ac43	-0.29232988
15	0xbe66282d	-0.22476263
16	0x3ec49bd9	0.38400152
17	0x3ddb9a73	0.10722818
18	0x3eea2ea8	0.4573872
19	0x3c62a4cf	0.013833239
20	0xbc9f3998	-0.019436643
21	0x3f78ce3e	0.971897
22	0x3e8ce9cb	0.2752212
23	0xbd6ab5dc	-0.05730234
24	0x3c8a9f9b	0.016921809
25	0xbe5b71b0	-0.21430087
26	0x3c37cb98	0.011217974
27	0xbd2d04b6	-0.04224082
28	0x3e4e8ec5	0.2017165
29	0x3f1cfa4f	0.6131944
30	0xbe141244	-0.14460093
31	0xbdb53d93	-0.08849635
32	0x3d37b089	0.04484609
33	0x3ede20ac	0.43384302
34	0x3dbed074	0.09317103
35	0xbc6e0571	-0.0145276645
36	0x3ec89538	0.39176345
37	0xbefbd699	-0.49187163
38	0xbd370bdd	-0.044689048
39	0xbd8b319f	-0.06796574
40	0x3f337316	0.7009748
41	0xbe7c0137	-0.24609838
42	0x3f32cb70	0.6984167
43	0x3ed0d7f6	0.40789765
44	0x3e95d50c	0.29264104
45	0xbd8b0f55	-0.06790034
46	0xbed9c0c0	-0.4252987
47	0x3cba458c	0.02273824
48	0x3ee27032	0.44226223
49	0xbe857fe0	-0.26074123
50	0xbd2915d0	-0.041280568
51	0xbe4664c8	-0.19374382
52	0x3eeeee50	0.46666193
53	0x3da6d68c	0.0814639
54	0x3e901fe0	0.2814932
55	0xbcd35be4	-0.025800653
56	0xbe473936	-0.19455418
57	0x3d75f7b4	0.06005068
58	0x3d116bd9	0.035503242
59	0xbd0ca7b0	-0.034339607
60	0x3ce96231	0.028489204
61	0xbbb19070	-0.0054188296
62	0xbc786ed3	-0.015163141
63	0x3f09e86b	0.53870267
64	0xbf194a16	-0.5987867
65	0xbee06224	-0.43824875
66	0x3f0b0d72	0.5431739
67	0x3e1ab91b	0.15109675
68	0x3d804446	0.06263022
69	0x3f019158	0.506124
70	0xbe2dcb12	-0.16971996
71	0xbe5afafe	-0.21384808
72	0x3d72cc2b	0.05927674
73	0x3e72cd91	0.2371123
74	0xbdab8329	-0.08374626
75	0x3f0e7796	0.55651224
76	0xbe88c130	-0.2670989
77	0xbd38dfe3	-0.04513539
78	0x3e0f6aea	0.14005628
79	0xbd8c3801	-0.068466194
80	0x3ecef170	0.40418577
81	0x3eddc3d1	0.4331346
82	0x3da088dc	0.07838604
83	0x3df9f72d	0.12205348
84	0xbf07e228	-0.5307946
85	0xbee1bf49	-0.44091251
86	0x3d377ad0	0.044794858
87	0x3c9ab3d6	0.01888458
88	0x3e9b54d7	0.30338165
89	0xbe41841d	-0.18898053
90	0xbd2a0209	-0.041505847
91	0x3cbd7223	0.023125714
92	0x3d8ca5f9	0.06867594
93	0xbdf0adb2	-0.1175188
94	0xbdacc19a	-0.08435364
95	0x3d7d361e	0.06181919
96	0x3e80f338	0.2518556
97	0xbd4bad62	-0.049725898
98	0x3cae2b1e	0.021260794
99	0xbd819588	-0.06327349
100	0xbe26295f	-0.1622672
101	0xbe07fc8f	-0.13279937
102	0x3eb87478	0.3602636
103	0x3e389b22	0.18027928
104	0x3eaa4c5f	0.33261392
105	0x3ec3e2af	0.38258883
106	0xbecaeede	-0.39635366
107	0x3f32848c	0.697335
108	0xbeecf352	-0.4627939
109	0xbe82be83	-0.25535974
110	0x3f0d5de1	0.5522137
111	0xbe2ca3b0	-0.16859317
112	0x3d36e701	0.044653896
113	0xbeed9483	-0.46402368
114	0xbe4b0635	-0.19826587
115	0x3f62391c	0.8836839
116	0xbe37f0ed	-0.17963
117	0xbf7001a7	-0.9375252
118	0xbecc4d43	-0.39902696
119	0xbc980757	-0.018558187
120	0xbf0c6496	-0.5484098
121	0xbe52cbe3	-0.20585589
122	0xbf1da9e2	-0.61587346
123	0x3e916953	0.28400669
124	0xbebc3fa2	-0.36767298
125	0x3f0e6bcd	0.5563324
126	0xbdaeff65	-0.085448064
127	0xbd466e8a	-0.048445262
128	0xbec19846	-0.37811488
129	0x3f185e08	0.5951848
130	0x3e396b58	0.18107355
131	0xbdf153d0	-0.11783564
132	0xbe876045	-0.26440635
133	0xbeecf43d	-0.4628009
134	0x3b9648f4	0.0045863334
135	0x3e086c32	0.13322523
136	0xbeecec30	-0.46273947
137	0xbf4b56e5	-0.79429466
138	0xbeece89b	-0.46271214
139	0xbe1f2c65	-0.15544279
140	0x3eb1f980	0.34760666
141	0x3ea3b9b9	0.31977633
142	0x3e9deb6a	0.3084367
143	0x3eab807b	0.3349646
144	0x3ef6b7f6	0.48187226
145	0x3f0a6851	0.54065424
146	0x3cc1128e	0.023568418
147	0x3ce9a647	0.02852167
148	0xbeb2a41f	-0.3489084
149	0x3e9774f9	0.2958143
150	0x3eefb630	0.46818686
151	0x3f37a5ce	0.7173737
152	0xbe5737c0	-0.2101736
153	0xbd9aee64	-0.07565001
154	0x3d22d443	0.03975321
155	0x3f33ff3a	0.7031132
156	0xbd70f5ff	-0.05882835
157	0xbdfb2719	-0.12263317
158	0xbf012871	-0.50452334
159	0xbe1b5c6d	-0.15171976
160	0x3f2ffb07	0.6874241
161	0x3f3325d9	0.69979626
162	0xbe8c5563	-0.27408895
163	0xbf0cc53d	-0.5498846
164	0xbe01f58d	-0.12691326
165	0x3f342201	0.70364386
166	0xbe33df4e	-0.17565653
167	0xbc7672ef	-0.015042051
168	0xbec64702	-0.3872605
169	0x3ead3c0a	0.3383487
170	0x3efe8752	0.49712616
171	0x3f018df8	0.5060725
172	0xbe96989d	-0.2941331
173	0x3eeda258	0.4641292
174	0xbd85d7cf	-0.06535303
175	0xbde215e9	-0.11039335
176	0xbd1c4478	-0.038151234
177	0xbe9d63e6	-0.3074028
178	0x3e83f7a5	0.25774875
179	0xbba05e7a	-0.004894075
180	0x3f6bd746	0.92125356
181	0x3f440c89	0.7658163
182	0xbed95df1	-0.42454484
183	0x3ea7fc4f	0.32809684
184	0xbe1c1ac9	-0.15244593
185	0x3eb4ddd8	0.35325503
186	0x3ec50b95	0.384854
187	0x3ca14ba0	0.019689381
188	0xbee2a505	-0.44266525
189	0x3f39c8ab	0.7257182
190	0xbf065632	-0.52475274
191	0xbee87080	-0.4539833
192	0xbe36d41e	-0.17854354
193	0x3effc90f	0.49958083
194	0x3ed01f0f	0.40648696
195	0x3ebf0a4f	0.37312552
196	0xbe454355	-0.19263966
197	0x3ec3804e	0.38183826
198	0x3e90631b	0.2820061
199	0xbe276bf8	-0.1634978
200	0x3e73bc76	0.23802361
201	0x3d8ef8e5	0.069810666
202	0xbe5f2e5b	-0.21795027
203	0xbe82c821	-0.2554331
204	0x3dfb0894	0.122574955
205	0x3f0738b5	0.52820903
206	0xbdd6aaa3	-0.10481765
207	0x3e3ed759	0.18636836
208	0xbef970f4	-0.4871899
209	0x3f054445	0.52057296
210	0x3ea858c3	0.3288022
211	0x3f00d80d	0.5032967
212	0xbe1de0b2	-0.15417746
213	0x3f328eea	0.6974932
214	0x3ed762d4	0.42067587
215	0xbe28d6bd	-0.16488166
216	0xbee8d210	-0.45472765
217	0x3f19053b	0.59773606
218	0xbde7bbe1	-0.11315132
219	0xbd84023f	-0.06445741
220	0xbd96e253	-0.07367387
221	0x3e723e55	0.2365659
222	0x3f2cb681	0.6746598
223	0x3eacf9bc	0.33784282
224	0xbe52467c	-0.205347
225	0x3e0d4d02	0.13798907
226	0xbdb413e2	-0.08792855
227	0x3ead1b07	0.33809683
228	0x3e7b2b0f	0.24528144
229	0x3c716147	0.014732665
230	0x3ed144d9	0.4087284
231	0xbf16cb39	-0.58903843
232	0x3ed44e09	0.41465786
233	0x3f782ce0	0.96943474
234	0x3eafa46d	0.34305134
235	0x3e93e8ca	0.2888854
236	0xbefb4f37	-0.49083874
237	0xba817af1	-0.0009878558
238	0x3ea642e2	0.32472903
239	0x3e8b20cf	0.27173468
240	0x3ea355d3	0.31901416
241	0x3f281fc6	0.6567348
242	0x3ea84ee6	0.32872695
243	0xbd5e4332	-0.0542633
244	0xbe89ba30	-0.26899862
245	0x3eaa61ae	0.3327765
246	0xbf05ec2b	-0.5231349
247	0xbd0b4a27	-0.034006264
248	0xbe2f9d17	-0.17149769
249	0x3f011e1e	0.5043658
250	0x3e97ed29	0.29673126
251	0xbdec852c	-0.11548838
252	0x3e964d11	0.29355672
253	0x3eae5a52	0.34053284
254	0x3f3d7430	0.74005413
255	0xbf1fcbfb	-0.62420624

l1.bias f4 [8]
0	0x3efbcc9b	0.4917954
1	0x3eece8ef	0.46271464
2	0x3f709eee	0.9399251
3	0x3eb9a5b7	0.36259243
4	0x3eb261f7	0.34840366
5	0x3f1055e1	0.5638104
6	0x3f57d0b7	0.8430285
7	0x3f33bd93	0.7021114

l2.weight f4 [8, 8]
0	0x3f08495d	0.53236943
1	0x3f2c2042	0.6723672
2	0xbeb9e378	-0.36306357
3	0x3f783d46	0.96968496
4	0x3f706e9b	0.9391877
5	0xbe5ee369	-0.21766438
6	0x3faed178	1.3657675
7	0xbf617468	-0.88068247
8	0x3e4bc011	0.19897486
9	0xbf8bbe94	-1.0917535
10	0x3fe0a3c5	1.7549978
11	0xbed3faf4	-0.414024
12	0xbf90fe70	-1.1327648
13	0x3e6fb787	0.23409854
14	0x3fc49955	1.5359293
15	0x3d9557cb	0.07292136
16	0xbf57f2dc	-0.8435495
17	0x3ef2a406	0.47390765
18	0xbedcef1e	-0.43151182
19	0x3e792c20	0.24333239
20	0x3cdf3d85	0.027251014
21	0x3f6fd626	0.9368614
22	0x3e495bf9	0.19663991
23	0x3fde7c29	1.7381641
24	0x3f5301ad	0.8242443
25	0x3e4ca913	0.19986372
26	0x3fcd9ddb	1.6063799
27	0x3f7bb67c	0.98325324
28	0x3e55a23d	0.2086267
29	0x4001ac70	2.0261497
30	0xbf3bcfa6	-0.7336372
31	0xbf0dd3f4	-0.5540154
32	0x3edf4fd8	0.43615603
33	0x3f55984b	0.83435506
34	0xbf768b1a	-0.96306
35	0x3f81a640	1.012886
36	0x3faef3a2	1.3668101
37	0x3e151134	0.14557344
38	0x3f2f3507	0.6844029
39	0x3ead2954	0.33820593
40	0xbed36b14	-0.41292632
41	0x3e78f8d7	0.24313675
42	0x3f3236f3	0.69615096
43	0xbe38d3ca	-0.18049541
44	0xbe94a987	-0.2903559
45	0xbe500b41	-0.20316793
46	0xbecb0673	-0.39653358
47	0x3fe2f87b	1.773208
48	0x3fcd6b57	1.6048383
49	0x3e08ff1b	0.13378565
50	0xbf11a36a	-0.56889975
51	0x3e2dec7e	0.16984746
52	0x3f5810d8	0.844007
53	0x3ee14b24	0.4400264
54	0x3f950e71	1.1645032
55	0xbdbc62c8	-0.091985285
56	0xbfbc2b03	-1.4700626
57	0x3fc345e1	1.52557
58	0x3f497026	0.7868675
59	0xbeb4fff4	-0.35351527
60	0xbe1dde68	-0.15416873
61	0xbeb6f6bc	-0.35735118
62	0x3f6822aa	0.90677893
63	0xbe65ebf6	-0.22453293

l2.bias f4 [8]
0	0x3ecfbe39	0.40574816
1	0x3f98707b	1.1909326
2	0x3f689ba8	0.9086251
3	0x3e307e78	0.17235744
4	0xbe75e07d	-0.24011417
5	0x3f204a17	0.6261305
6	0xbcfda270	-0.030961245
7	0x3e9e2827	0.3089001

l3.weight f4 [13, 8]
0	0xbf0b10d0	-0.5432253
1	0xbfacfa64	-1.3513913
2	0x3eeda6e3	0.46416387
3	0x3eb6d2b9	0.35707644
4	0x3ecb7e42	0.39744765
5	0x3e555566	0.20833358
6	0xbf11bdf1	-0.5693045
7	0xc000a327	-2.009958
8	0xbc9b17a6	-0.018932175
9	0xbe5008e9	-0.20315899
10	0x3e07e6ee	0.13271686
11	0x3d84c3e8	0.06482679
12	0xbf553d98	-0.8329711
13	0x3e9fe8e9	0.31232384
14	0xbf474c04	-0.77850366
15	0x3eecdc35	0.46261755
16	0xbfe57629	-1.7926685
17	0x3d3159bd	0.04329847
18	0x3dbae084	0.09124854
19	0x3f3add6f	0.7299413
20	0xbf9bade2	-1.216244
21	0x3e991273	0.29896888
22	0xbe3f4cd4	-0.18681651
23	0xbfdd8f3a	-1.7309334
24	0x3eeb5b86	0.45968264
25	0x3ec01fcc	0.3752426
26	0xbdcd4c86	-0.10024361
27	0xbfebf6bd	-1.8434674
28	0xbecd95e1	-0.4015341
29	0xbfa7eade	-1.3118551
30	0x3e48d3af	0.19612001
31	0x3db7c3bf	0.089728825
32	0xbff3bb13	-1.9041466
33	0x3f1fc932	0.62416375
34	0xbf285bc9	-0.65765053
35	0x3f42afdf	0.7604961
36	0xbfa27842	-1.269295
37	0xbe469e95	-0.19396432
38	0xc0160147	-2.343828
39	0x3e70cf54	0.2351659
40	0xbf859899	-1.0437194
41	0x3f495fe2	0.7866193
42	0x3f25b132	0.64723504
43	0xbf8e1cc6	-1.1102531
44	0xbfe9d2cf	-1.8267459
45	0x3f706a2d	0.9391201
46	0xbfb471e2	-1.4097254
47	0xbee8631e	-0.4538812
48	0x3e83c115	0.25733247
49	0x3eb82765	0.35967556
50	0xbf3a2bfe	-0.72723377
51	0x3ee51b57	0.4474742
52	0xbeac13ae	-0.33608764
53	0xbf93d2b3	-1.1548675
54	0x3e9677d3	0.29388294
55	0xbfdc35fc	-1.7203975
56	0xbe368393	-0.17823629
57	0x3f4f9a4d	0.8109482
58	0xbfa86827	-1.3156785
59	0xbe075cfd	-0.13219066
60	0xbfcf562f	-1.6198176
61	0xbe81bd81	-0.25339893
62	0xbf407941	-0.7518502
63	0x3ee27579	0.4423025
64	0xbfa37dc9	-1.2772762
65	0xbfb9116a	-1.4458439
66	0x3f28e36a	0.65972006
67	0xbfa999f8	-1.3250113
68	0xbe35b2f4	-0.17744046
69	0x3f0f609d	0.56006795
70	0xbf7883ac	-0.97075915
71	0x3f663909	0.8993078
72	0x3eb8a167	0.3606064
73	0xbfbdfb11	-1.4842244
74	0xbfa56538	-1.2921515
75	0x3f0ee298	0.55814505
76	0x3ee58089	0.44824627
77	0xbf3f76b8	-0.74790525
78	0x3e3929a3	0.1808229
79	0xbf491fb1	-0.7856398
80	0x3f08671c	0.5328233
81	0xbf81232e	-1.0088861
82	0xbf0bac6b	-0.54559964
83	0xbfbb9ebd	-1.4657818
84	0x3f315858	0.69275427
85	0xbf48ab7c	-0.78386664
86	0x3ef28787	0.47369024
87	0x3e1ba458	0.15199411
88	0x3e337b20	0.17527437
89	0xbfd89066	-1.6919067
90	0x3e8b1643	0.27165422
91	0xbe9afd1e	-0.30271238
92	0x3ea67b92	0.32516152
93	0xbeaef7b1	-0.3417335
94	0xbeee4759	-0.4653881
95	0x3e88f6b2	0.26750714
96	0xbf162ad8	-0.58659124
97	0xbf4c1dfa	-0.7973324
98	0x3f0731b4	0.52810216
99	0xbfc5d182	-1.5454562
100	0x3e8b6a43	0.2722951
101	0x3edee3d3	0.4353319
102	0x3ea4cdc6	0.32188243
103	0xbfb24b23	-1.392918

l3.bias f4 [13]
0	0xbdd8ec5c	-0.10591957
1	0xbe91c1ea	-0.28468257
2	0x3dc28e2a	0.09499772
3	0x3ea07038	0.31335616
4	0xbe11f301	-0.14252855
5	0x3f0f17e0	0.55895805
6	0x3e8c34f8	0.27384162
7	0x3e63a548	0.22231019
8	0x3e7666b2	0.24062613
9	0xbedf384b	-0.43597636
10	0x3d7a1069	0.061050806
11	0xbd37e721	-0.044898156
12	0x3dfbd3b1	0.12296236
